Max sentence length:  11
Model: "sequential"
_________________________________________________________________
Layer (type)                 Output Shape              Param #   
=================================================================
embedding (Embedding)        (None, 11, 100)           14192600
_________________________________________________________________
flatten (Flatten)            (None, 1100)              0
_________________________________________________________________
dense_1 (Dense)              (None, 10)                11010
_________________________________________________________________
dropout (Dropout)            (None, 10)                0
_________________________________________________________________
dense (Dense)                (None, 2)                 22
=================================================================
Total params: 14,203,632
Trainable params: 11,032
Non-trainable params: 14,192,600
_________________________________________________________________
None


training.....


training ffnn with activation func:  relu       drop out rate:  0.5
<keras.engine.sequential.Sequential object at 0x0000025196586BA8>
2022-03-04 00:31:19.963916: I tensorflow/compiler/mlir/mlir_graph_optimization_pass.cc:185] None of the MLIR Optimization Passes are enabled (registered 2)
…
